module attributes {torch.debug_module_name = "LeNet"} {
  func.func @forward(%arg0: tensor<1x1x32x32xf32>) -> tensor<1x10xf32> {
    %0 = "tosa.const"() {value = dense<"…"> : tensor<10x120xf32>} : () -> tensor<10x120xf32>
    %1 = "tosa.const"() {value = dense<"…"> : tensor<120xf32>} : () -> tensor<120xf32>
    %2 = "tosa.const"() {value = dense<"…"> : tensor<120x16x5x5xf32>} : () -> tensor<120x16x5x5xf32>
    %3 = "tosa.const"() {value = dense<[… > : tensor<16xf32>} : () -> tensor<16xf32>
    %4 = "tosa.const"() {value = dense<"…"> : tensor<16x6x5x5xf32>} : () -> tensor<16x6x5x5xf32>
    %5 = "tosa.const"() {value = dense<[-0.0936823338, -0.0839598253, -0.0524190739, -7.065580e-02, -0.00133406848, -0.0733836293]> : tensor<6xf32>} : () -> tensor<6xf32>
    %6 = "tosa.const"() {value = dense<[0, 2, 3, 1]> : tensor<4xi32>} : () -> tensor<4xi32>
    %7 = "tosa.const"() {value = dense<[0, 3, 1, 2]> : tensor<4xi32>} : () -> tensor<4xi32>
    %8 = "tosa.const"() {value = dense<[1, 0]> : tensor<2xi32>} : () -> tensor<2xi32>
    %9 = "tosa.const"() {value = dense<[[0.0395545214, 0.0232992321, 0.0729031488, 0.0216921251, 0.104451463, 0.0905180796, -0.00361875468, 0.0736192465, 0.0929536744, 0.00875707529]]> : tensor<1x10xf32>} : () -> tensor<1x10xf32>
    %10 = "tosa.const"() {value = dense<"…"> : tensor<6x5x5x1xf32>} : () -> tensor<6x5x5x1xf32>
    %11 = chiplet.chip 0 attributes {chiplet_load = 5 : i32} : tensor<1x28x28x6xf32> {
      %17 = chiplet.task : tensor<1x28x28x6xf32> {
        %18 = "tosa.reshape"(%arg0) {new_shape = [1, 32, 32, 1]} : (tensor<1x1x32x32xf32>) -> tensor<1x32x32x1xf32>
        %19 = "tosa.conv2d"(%18, %10, %5) {dilation = [1, 1], pad = [0, 0, 0, 0], stride = [1, 1]} : (tensor<1x32x32x1xf32>, tensor<6x5x5x1xf32>, tensor<6xf32>) -> tensor<1x28x28x6xf32>
        %20 = "tosa.transpose"(%19, %7) : (tensor<1x28x28x6xf32>, tensor<4xi32>) -> tensor<1x6x28x28xf32>
        %21 = "tosa.clamp"(%20) {max_fp = 3.40282347E+38 : f32, max_int = 2147483647 : i64, min_fp = 0.000000e+00 : f32, min_int = 0 : i64} : (tensor<1x6x28x28xf32>) -> tensor<1x6x28x28xf32>
        %22 = "tosa.transpose"(%21, %6) : (tensor<1x6x28x28xf32>, tensor<4xi32>) -> tensor<1x28x28x6xf32>
        chiplet.yield %22 : tensor<1x28x28x6xf32>
      }
      chiplet.yield %17 : tensor<1x28x28x6xf32>
    }
    %12 = chiplet.chip 1 attributes {chiplet_load = 3 : i32} : tensor<1x10x10x16xf32> {
      %17 = chiplet.task : tensor<1x10x10x16xf32> {
        %18 = "tosa.max_pool2d"(%11) {kernel = [2, 2], pad = [0, 0, 0, 0], stride = [2, 2]} : (tensor<1x28x28x6xf32>) -> tensor<1x14x14x6xf32>
        %19 = "tosa.transpose"(%4, %6) : (tensor<16x6x5x5xf32>, tensor<4xi32>) -> tensor<16x5x5x6xf32>
        %20 = "tosa.conv2d"(%18, %19, %3) {dilation = [1, 1], pad = [0, 0, 0, 0], stride = [1, 1]} : (tensor<1x14x14x6xf32>, tensor<16x5x5x6xf32>, tensor<16xf32>) -> tensor<1x10x10x16xf32>
        chiplet.yield %20 : tensor<1x10x10x16xf32>
      }
      chiplet.yield %17 : tensor<1x10x10x16xf32>
    }
    %13 = chiplet.chip 2 attributes {chiplet_load = 4 : i32} : tensor<1x5x5x16xf32> {
      %17 = chiplet.task : tensor<1x5x5x16xf32> {
        %18 = "tosa.transpose"(%12, %7) : (tensor<1x10x10x16xf32>, tensor<4xi32>) -> tensor<1x16x10x10xf32>
        %19 = "tosa.clamp"(%18) {max_fp = 3.40282347E+38 : f32, max_int = 2147483647 : i64, min_fp = 0.000000e+00 : f32, min_int = 0 : i64} : (tensor<1x16x10x10xf32>) -> tensor<1x16x10x10xf32>
        %20 = "tosa.transpose"(%19, %6) : (tensor<1x16x10x10xf32>, tensor<4xi32>) -> tensor<1x10x10x16xf32>
        %21 = "tosa.max_pool2d"(%20) {kernel = [2, 2], pad = [0, 0, 0, 0], stride = [2, 2]} : (tensor<1x10x10x16xf32>) -> tensor<1x5x5x16xf32>
        chiplet.yield %21 : tensor<1x5x5x16xf32>
      }
      chiplet.yield %17 : tensor<1x5x5x16xf32>
    }
    %14:2 = chiplet.chip 0 attributes {chiplet_load = 5 : i32} : tensor<1x120x1x1xf32>, tensor<120x10xf32> {
      %17:2 = chiplet.task : tensor<1x120x1x1xf32>, tensor<120x10xf32> {
        %18 = "tosa.transpose"(%2, %6) : (tensor<120x16x5x5xf32>, tensor<4xi32>) -> tensor<120x5x5x16xf32>
        %19 = "tosa.conv2d"(%13, %18, %1) {dilation = [1, 1], pad = [0, 0, 0, 0], stride = [1, 1]} : (tensor<1x5x5x16xf32>, tensor<120x5x5x16xf32>, tensor<120xf32>) -> tensor<1x1x1x120xf32>
        %20 = "tosa.reshape"(%19) {new_shape = [1, 120, 1, 1]} : (tensor<1x1x1x120xf32>) -> tensor<1x120x1x1xf32>
        %21 = "tosa.clamp"(%20) {max_fp = 3.40282347E+38 : f32, max_int = 2147483647 : i64, min_fp = 0.000000e+00 : f32, min_int = 0 : i64} : (tensor<1x120x1x1xf32>) -> tensor<1x120x1x1xf32>
        %22 = "tosa.transpose"(%0, %8) : (tensor<10x120xf32>, tensor<2xi32>) -> tensor<120x10xf32>
        chiplet.yield %21, %22 : tensor<1x120x1x1xf32>, tensor<120x10xf32>
      }
      chiplet.yield %17#0, %17#1 : tensor<1x120x1x1xf32>, tensor<120x10xf32>
    }
    %15 = chiplet.chip 1 attributes {chiplet_load = 3 : i32} : tensor<1x1x10xf32> {
      %17 = chiplet.task : tensor<1x1x10xf32> {
        %18 = "tosa.reshape"(%14#0) {new_shape = [1, 1, 120]} : (tensor<1x120x1x1xf32>) -> tensor<1x1x120xf32>
        %19 = "tosa.reshape"(%14#1) {new_shape = [1, 120, 10]} : (tensor<120x10xf32>) -> tensor<1x120x10xf32>
        %20 = "tosa.matmul"(%18, %19) : (tensor<1x1x120xf32>, tensor<1x120x10xf32>) -> tensor<1x1x10xf32>
        chiplet.yield %20 : tensor<1x1x10xf32>
      }
      chiplet.yield %17 : tensor<1x1x10xf32>
    }
    %16 = chiplet.chip 2 attributes {chiplet_load = 4 : i32} : tensor<1x10xf32> {
      %17 = chiplet.task : tensor<1x10xf32> {
        %18 = "tosa.reshape"(%15) {new_shape = [1, 10]} : (tensor<1x1x10xf32>) -> tensor<1x10xf32>
        %19 = "tosa.add"(%18, %9) : (tensor<1x10xf32>, tensor<1x10xf32>) -> tensor<1x10xf32>
        chiplet.yield %19 : tensor<1x10xf32>
      }
      chiplet.yield %17 : tensor<1x10xf32>
    }
    return %16 : tensor<1x10xf32>
  }
}

