module attributes {torch.debug_module_name = "LeNet"} {
  func.func @forward(%arg0: tensor<1x1x32x32xf32>) -> tensor<1x10xf32> attributes {tosa_flow.debug = "was_here"} {
    %0 = "tosa.const"() {value = dense<"…"> : tensor<10x120xf32>} : () -> tensor<10x120xf32>
    %1 = "tosa.const"() {value = dense<"…"> : tensor<120xf32>} : () -> tensor<120xf32>
    %2 = "tosa.const"() {value = dense<"…"> : tensor<120x16x5x5xf32>} : () -> tensor<120x16x5x5xf32>
    %3 = "tosa.const"() {value = dense<[… > : tensor<16xf32>} : () -> tensor<16xf32>
    %4 = "tosa.const"() {value = dense<"…"> : tensor<16x6x5x5xf32>} : () -> tensor<16x6x5x5xf32>
    %5 = "tosa.const"() {value = dense<[0.106064223, -6.452260e-02, -0.140364572, 0.0895468518, 0.183817938, -0.0399764068]> : tensor<6xf32>} : () -> tensor<6xf32>
    %6 = "tosa.const"() {value = dense<[0, 2, 3, 1]> : tensor<4xi32>} : () -> tensor<4xi32>
    %7 = "tosa.const"() {value = dense<[1, 0]> : tensor<2xi32>} : () -> tensor<2xi32>
    %8 = "tosa.const"() {value = dense<[[0.0289126225, -0.0827919319, -0.0820741802, 0.0245653521, 0.0254146587, 0.028333772, -0.061349947, -0.0196242146, 0.0259850528, 0.00718894694]]> : tensor<1x10xf32>} : () -> tensor<1x10xf32>
    %9 = "tosa.const"() {value = dense<"…"> : tensor<6x5x5x1xf32>} : () -> tensor<6x5x5x1xf32>
    %10 = "tosa.reshape"(%arg0) {new_shape = [1, 32, 32, 1]} : (tensor<1x1x32x32xf32>) -> tensor<1x32x32x1xf32>
    %11 = "tosa_flow.fused_conv2d_maxpool"(%10, %9, %5) {conv_dilation = [1, 1], conv_pad = [0, 0, 0, 0], conv_stride = [1, 1], pool_kernel = [2, 2], pool_pad = [0, 0, 0, 0], pool_stride = [2, 2]} : (tensor<1x32x32x1xf32>, tensor<6x5x5x1xf32>, tensor<6xf32>) -> tensor<1x14x14x6xf32>
    %12 = "tosa.transpose"(%4, %6) : (tensor<16x6x5x5xf32>, tensor<4xi32>) -> tensor<16x5x5x6xf32>
    %13 = "tosa_flow.fused_conv2d_maxpool"(%11, %12, %3) {conv_dilation = [1, 1], conv_pad = [0, 0, 0, 0], conv_stride = [1, 1], pool_kernel = [2, 2], pool_pad = [0, 0, 0, 0], pool_stride = [2, 2]} : (tensor<1x14x14x6xf32>, tensor<16x5x5x6xf32>, tensor<16xf32>) -> tensor<1x5x5x16xf32>
    %14 = "tosa.transpose"(%2, %6) : (tensor<120x16x5x5xf32>, tensor<4xi32>) -> tensor<120x5x5x16xf32>
    %15 = "tosa.conv2d"(%13, %14, %1) {dilation = [1, 1], pad = [0, 0, 0, 0], stride = [1, 1]} : (tensor<1x5x5x16xf32>, tensor<120x5x5x16xf32>, tensor<120xf32>) -> tensor<1x1x1x120xf32>
    %16 = "tosa.reshape"(%15) {new_shape = [1, 120, 1, 1]} : (tensor<1x1x1x120xf32>) -> tensor<1x120x1x1xf32>
    %17 = "tosa.clamp"(%16) {max_fp = 3.40282347E+38 : f32, max_int = 2147483647 : i64, min_fp = 0.000000e+00 : f32, min_int = 0 : i64} : (tensor<1x120x1x1xf32>) -> tensor<1x120x1x1xf32>
    %18 = "tosa.transpose"(%0, %7) : (tensor<10x120xf32>, tensor<2xi32>) -> tensor<120x10xf32>
    %19 = "tosa.reshape"(%17) {new_shape = [1, 1, 120]} : (tensor<1x120x1x1xf32>) -> tensor<1x1x120xf32>
    %20 = "tosa.reshape"(%18) {new_shape = [1, 120, 10]} : (tensor<120x10xf32>) -> tensor<1x120x10xf32>
    %21 = "tosa.matmul"(%19, %20) : (tensor<1x1x120xf32>, tensor<1x120x10xf32>) -> tensor<1x1x10xf32>
    %22 = "tosa.reshape"(%21) {new_shape = [1, 10]} : (tensor<1x1x10xf32>) -> tensor<1x10xf32>
    %23 = "tosa.add"(%22, %8) : (tensor<1x10xf32>, tensor<1x10xf32>) -> tensor<1x10xf32>
    return %23 : tensor<1x10xf32>
  }
}

